example_material/npys/b416732d162e4e4d92ee9a37c65fedbc_8192.npy (npy, 196736 bytes, 1 tensors)

array f4 [8192, 6]
000000 61 53 a2 3e 59 a2 27 3d 35 42 d5 be d1 d0 50 3d
       0.31704238 0.04092631 -0.41652074 0.050980393
000010 00 00 00 00 00 00 00 00 16 3a 8a be c4 31 ec 3a
       0.0 0.0 -0.2699744 0.0018020202
000020 72 21 f2 3e fa f9 79 3f 00 00 00 00 00 00 80 3f
       0.47291142 0.9764706 0.0 1.0
000030 d4 21 a1 be 04 89 38 bd 2a 2c 00 3f d1 d0 50 3d
       -0.3147112 -0.045052543 0.5006739 0.050980393
000040 00 00 00 00 00 00 00 00 54 1a 8c 3e 2e 54 53 3d
       0.0 0.0 0.27363837 0.051593952
000050 6c bb e1 3e ed ec 6c 3e fd fc fc 3e bd bc 3c 3f
       0.44088304 0.23137255 0.49411765 0.7372549
000060 60 b3 80 3e bd 48 e7 bd 56 cb cd be 83 82 82 3e
       0.25136852 -0.112931706 -0.40194196 0.25490198
000070 87 86 06 3f c7 c6 46 3f 9a ee 3a 3d 18 fe 12 bc
       0.5254902 0.7764706 0.045637704 -0.0089717135
000080 64 a2 fa 3e 86 85 05 3f 00 00 00 00 c9 c8 c8 3e
       0.4895202 0.52156866 0.0 0.39215687
000090 45 7b 8f 3e ec dc 1d 3d ad 40 74 3e d1 d0 50 3d
       0.28023735 0.038540766 0.23852797 0.050980393
0000a0 00 00 00 00 00 00 00 00 78 ed 52 be 96 e3 ce bd
       0.0 0.0 -0.205984 -0.10102002
0000b0 17 e9 fe be d1 d0 50 3d 00 00 00 00 00 00 00 00
       -0.49787208 0.050980393 0.0 0.0
0000c0 63 d7 8f 3e 32 cf c6 3d 45 a2 c7 be a9 a8 28 3e
       0.28094015 0.09707488 -0.3899099 0.16470589
0000d0 ed ec 6c 3e df de de 3e cc 42 2f 3e 18 5f 41 3b
       0.23137255 0.43529412 0.17115325 0.0029506143
0000e0 d0 cc f1 3e d3 d2 52 3f 00 00 00 00 dd dc 5c 3f
       0.47226572 0.8235294 0.0 0.8627451
0000f0 a2 ca 85 3e c4 ab 5e 3d b6 9a f1 3e b1 b0 30 3e
       0.2613116 0.054363027 0.47188348 0.17254902
000100 e9 e8 68 3e af ae ae 3e fb 75 76 be 44 f9 07 bc
       0.22745098 0.34117648 -0.24068443 -0.008299176
000110 d3 76 f5 3e bc bb 3b 3f 00 00 00 00 a6 a5 25 3f
       0.47942218 0.73333335 0.0 0.64705884
000120 00 b1 d4 bc 32 46 ec bd ca 6c d3 be a5 a4 24 3e
       -0.025963306 -0.11536826 -0.41293937 0.16078432
000130 9d 9c 1c 3e a3 a2 a2 3e 64 55 08 3d b7 ee 9b 3c
       0.15294118 0.31764707 0.03328456 0.019034727
000140 18 b4 fa 3e cd cc 4c 3e 00 00 00 00 81 80 00 3e
       0.48965526 0.2 0.0 0.1254902
000150 1a cd 8a bd 80 bc 4b 3c 26 6f d1 be b3 b2 b2 3e
       -0.06777401 0.012435079 -0.40905112 0.34901962
000160 00 00 00 00 91 90 10 3d b8 96 71 3e 22 0e 8a bd
       0.0 0.03529412 0.23592651 -0.06740977
000170 1d 04 be bd e1 e0 60 3d 00 00 00 00 00 00 00 00
       -0.09278128 0.05490196 0.0 0.0
000180 af 62 81 be 87 7e 4e 3c ce e0 fa 3e cd cc cc 3e
       -0.25270602 0.012603409 0.48999637 0.4
000190 00 00 00 00 99 98 98 3e d0 26 a3 3e e7 bd 8e 3c
       0.0 0.29803923 0.3186555 0.017424537
0001a0 9a e6 d9 be 8f 8e 8e 3e 00 00 00 00 ed ec 6c 3e
       -0.42558748 0.2784314 0.0 0.23137255
0001b0 87 72 08 3c 0f 67 f5 3d b5 51 d7 be d1 d0 50 3d
       0.008328087 0.119825475 -0.42054525 0.050980393
0001c0 00 00 00 00 00 00 00 00 38 1f 39 3e 42 fb cb 3c
       0.0 0.0 0.18078315 0.024900082
0001d0 5a 9a f7 3e b6 b5 35 3f 00 00 00 00 94 93 13 3f
       0.48359948 0.70980394 0.0 0.5764706
0001e0 4d 8f 65 3e 5b 91 5b bd 63 b5 ff 3e d1 d0 50 3d
       0.22417946 -0.05360542 0.49943075 0.050980393
0001f0 00 00 00 00 00 00 00 00 50 67 87 3e f4 de de 3d
       0.0 0.0 0.2644601 0.10882369
000200 d0 d7 d0 be dd dc 5c 3e cd cc cc 3e b0 af 2f 3f
       -0.40789652 0.21568628 0.4 0.6862745
000210 39 ef e3 3d 9c de f5 bd 5c 53 ff be d1 d0 50 3d
       0.111296125 -0.1200535 -0.49868286 0.050980393
000220 00 00 00 00 00 00 00 00 0f 42 a9 3a 88 b3 b7 3b
       0.0 0.0 0.0012913364 0.0056061186
000230 66 61 f2 3e 00 00 80 3f 00 00 00 00 fe fd 7d 3f
       0.47339934 1.0 0.0 0.99215686
000240 04 5c 8e 3e 0f fa c5 bd c1 6d cc be d9 d8 d8 3d
       0.27804577 -0.096668355 -0.39927486 0.105882354
000250 b9 b8 38 3e 8f 8e 8e 3e 28 8e 7e 3e f5 51 51 bd
       0.18039216 0.2784314 0.24858916 -0.05110355
000260 03 89 e4 3e cd cc 4c 3e b5 b4 b4 3e 8d 8c 0c 3f
       0.44635782 0.2 0.3529412 0.54901963
000270 b9 75 39 3e d1 f6 a1 bc 22 6e fa 3e bb ba ba 3e
       0.18111314 -0.019771012 0.4891215 0.3647059
000280 00 00 00 00 fd fc 7c 3e cd 8e 94 bd bf 04 13 bc
       0.0 0.24705882 -0.072537996 -0.0089732995
000290 e4 df f7 3e d2 d1 51 3f 00 00 00 00 d4 d3 53 3f
       0.48413002 0.81960785 0.0 0.827451
0002a0 f9 80 64 be ac a2 b5 bc 69 de f2 3e e5 e4 64 3e
       -0.22314824 -0.022172295 0.4743531 0.22352941
0002b0 00 00 00 00 91 90 10 3e d3 46 84 3e 04 78 f6 bd
       0.0 0.14117648 0.25835285 -0.1203461
0002c0 1c da d9 be c1 c0 40 3e 8f 8e 8e 3e 84 83 03 3f
       -0.42549217 0.1882353 0.2784314 0.5137255
0002d0 f7 0c 3d be 50 4d 0d bc 99 ba fa 3e 8a 89 09 3f
       -0.18461977 -0.00862439 0.48970488 0.5372549
0002e0 00 00 00 00 f7 f6 f6 3e 3f 57 ba bd d2 2b 71 3d
       0.0 0.48235294 -0.09098672 0.05887968
0002f0 0a b0 f9 3e b1 b0 30 3d 00 00 00 00 00 00 00 00
       0.4876712 0.043137256 0.0 0.0
000300 51 04 8d 3e 65 6d 24 3d 9e 00 da 3e b9 b8 b8 3d
       0.27542356 0.04014339 0.42578596 0.09019608
000310 a1 a0 a0 3d b5 b4 34 3e db b5 47 bd 82 06 47 3c
       0.078431375 0.1764706 -0.048757415 0.012147548
000320 73 01 fa 3e b6 b5 35 3f 00 00 00 00 89 88 08 3f
       0.4882923 0.70980394 0.0 0.53333336
000330 29 45 77 3e 53 0b e0 3d f6 d7 d1 be d9 d8 d8 3d
       0.24147476 0.1093966 -0.40985078 0.105882354
000340 89 88 08 3e f5 f4 74 3e 1e 57 46 be 9b 2a ec 3d
       0.13333334 0.23921569 -0.1936917 0.11531564
000350 82 20 ff be e1 e0 60 3d 00 00 00 00 00 00 00 00
       -0.4982949 0.05490196 0.0 0.0
000360 fb 39 d1 bc 1b fc d3 3c cd 28 f7 3e c9 c8 c8 3e
       -0.025540343 0.02587705 0.48273316 0.39215687
000370 00 00 00 00 f9 f8 78 3e ac 2c 88 3e 24 f8 f4 bd
       0.0 0.24313726 0.26596582 -0.119613916
000380 d6 56 d7 be b1 b0 b0 3d a1 a0 20 3d e9 e8 e8 3d
       -0.42058438 0.08627451 0.039215688 0.11372549
000390 a9 00 87 3e 26 e5 8b 3d 73 b8 12 3d 91 90 10 3d
       0.2636769 0.06830816 0.035820436 0.03529412
0003a0 00 00 00 00 a1 a0 a0 3d 49 3f 8f 3e 65 29 ce 3d
       0.0 0.078431375 0.2797797 0.10066489
0003b0 26 18 c1 be f5 f4 74 3e 8b 8a 0a 3f d2 d1 51 3f
       -0.37713736 0.23921569 0.5411765 0.81960785
0003c0 a9 31 75 3e 01 8f 8a 3d 55 f3 72 be d1 d0 50 3d
       0.23944725 0.06765557 -0.23725636 0.050980393
0003d0 00 00 00 00 00 00 00 00 94 a6 8a be c7 07 60 bb
       0.0 0.0 -0.27080214 -0.0034184323
0003e0 d3 3e f3 3e ec eb 6b 3f 00 00 00 00 d1 d0 50 3f
       0.4750887 0.92156863 0.0 0.8156863
0003f0 b5 0f dd bd fc d9 cc 3b b2 6d d1 be 9d 9c 1c 3e
       -0.107940115 0.0062515717 -0.40904003 0.15294118
